model/torch_model.pth (torch_old, 206251 bytes, 20 tensors)

weight f4 [150, 16]
0.12396732 0.12971738 -0.35828477 -3.3150313 -2.092349 -0.8527363 -1.4245185 -2.2440777
-1.0367025 -0.8893709 -0.92348325 -1.6495287 -2.1288102 -1.5019721 -1.2962663 0.31316948
0.042167455 -0.18565187 -2.0030417 0.08140849 7.233239 -4.008931 -3.2931597 5.089248
4.311695 8.284717 -0.8807125 -6.0596576 -8.552597 0.7888149 -1.5465103 0.50109106
0.19117859 0.05289343 -0.46887863 -0.21912254 -0.14458084 -0.37101158 -0.4868371 -0.08366391
-0.36427128 -0.44232216 -0.15132406 -0.48524848 -0.33974025 -0.03978102 -0.41772836 -0.057737
-0.020981133 -0.00910452 -7.7536383 -3.830955 4.049101 -3.8151782 3.096588 -3.7327194
3.6948361 6.9764533 3.435316 -4.108652 3.3406203 -3.9344087 3.5012515 -3.9120657
-0.00895071 -0.23096168 8.146013 2.626381 -1.893877 4.6993923 -1.2991695 3.9767203
-2.7477038 -6.4882483 -2.8650134 4.5600863 -3.5102305 4.5004344 -2.7404335 3.0490072
-0.13051406 -0.08779344 -0.14384992 -0.26212734 -0.11197319 -0.59190285 -0.51144487 -0.5158003
-0.71658814 -0.48596445 -0.59205824 -0.1295396 -0.536642 0.035956465 -0.24619104 -0.086600065
0.13282752 -0.21348464 -6.7326827 -5.518848 -1.7187219 -4.76554 0.95020944 -4.782337
-0.6161127 1.9962767 0.14664893 -2.6374521 0.6485978 -5.303335 0.915558 -4.65316
-0.2100707 0.0471811 0.7962812 -0.89941347 -11.008813 5.1412883 3.1400993 -0.24638544
-10.28157 7.3034983 3.720899 -0.25630137 -16.283453 5.3048887 3.5799277 -1.0701439
-0.20928562 -0.10606757 -2.1412802 -2.4023771 8.5620985 -4.562829 -2.7040453 -2.460793
9.877072 -5.344449 -2.0527668 -1.9120324 9.61932 -4.7707996 -2.2261462 -1.3454216
-0.10561785 -0.11093852 -10.6881275 5.31305 0.6644845 -4.310313 5.88404 4.5670733
0.89092654 7.2980223 6.68093 4.9579887 -0.27665704 -2.5924628 5.0558114 4.0337486
0.10282016 0.016088098 5.6152067 -8.462767 2.8040993 4.2460027 1.0679603 -7.916403
3.1651196 2.1724374 2.7164433 -8.514344 5.775159 4.0780396 3.3340502 -8.634307
0.017576367 -0.10155088 -0.8312988 -0.19447489 -0.701978 -0.677689 -0.6966235 -0.834517
0.07909759 -0.548392 -0.5179907 -0.52802104 -2.133135 -0.8852626 -0.39238858 -0.6922474
-0.20496416 0.16572961 -0.1916429 -0.68548673 -0.041990604 -0.5251044 -0.8960835 -0.517489
-0.3043666 -0.4089458 -0.4941732 -0.41008693 -0.49664524 -0.21826093 -0.60926676 -0.46512994
-0.14816791 -0.022916436 -0.6988514 -0.05455704 -0.7773533 -0.59326005 0.09187915 -0.068782814
-0.7916454 -0.45450962 -0.17117067 -0.40544322 -0.7482596 -0.41720098 -0.60628915 -0.17084606
-0.13457566 0.026922435 -2.1278217 -0.10783247 1.5901942 -5.107354 1.3716537 -8.907597
-1.9874203 -7.1050277 -3.4955158 -0.08285235 -2.4318712 3.6298466 0.1304819 -5.367452
0.2084037 -0.1935342 2.8500621 -7.862141 5.108976 4.3289027 1.7626162 -9.285745
4.8498917 0.46226096 -0.10394135 -9.352131 3.6297333 4.368531 0.50817204 -9.104484
00000000: 94e2 fd3d a2d4 043e 1a71 b7be 7929 54c0
00000010: 0ce9 05c0 ed4c 5abf 9f56 b6bf f89e 0fc0
00000020: abb2 84bf d0ad 63bf 6669 6cbf c223 d3bf
00000030: 6d3e 08c0 9f40 c0bf 0eec a5bf c057 a03e
00000040: c8b7 2c3d 861b 3ebe d631 00c0 7fb9 a63d
00000050: b276 e740 2a49 80c0 21c3 52c0 1fdb a240
00000060: 68f9 8940 338e 0441 6076 61bf b7e8 c1c0
00000070: 70d7 08c1 c6ef 493f 0df4 c5bf 8147 003f
00000080: 52c4 433e c8a6 583d dc10 f0be a961 60be
00000090: 000d 14be 3bf5 bdbe b642 f9be fc57 abbd
000000a0: c481 babe 0d78 e2be b2f4 1abe 7d72 f8be
000000b0: 6ff2 adbe 6cf1 22bd 7ee0 d5be a27d 6cbd
000000c0: a0e0 abbc 202b 15bc ce1d f8c0 5e2e 75c0
000000d0: 3c92 8140 e12b 74c0 7f2e 4640 e0e4 6ec0
000000e0: 3278 6c40 1b3f df40 38dc 5b40 147a 83c0
000000f0: b9cc 5540 5acd 7bc0 8114 6040 495f 7ac0
00000100: 00a6 12bc 3881 6cbe 1256 0241 a016 2840
00000110: 906a f2bf 6c61 9640 304b a6bf 9682 7e40
00000120: 61da 2fc0 bb9f cfc0 615c 37c0 3aec 9140
00000130: 9ea7 60c0 8f03 9040 4363 2fc0 ef22 4340
00000140: 7aa5 05be 0ccd b3bd 654d 13be 8e35 86be
00000150: 3352 e5bd f286 17bf 0dee 02bf 7d0b 04bf
00000160: 5272 37bf 55d0 f8be 2191 17bf 07a6 04be
00000170: 5f61 09bf 1647 133d 8119 7cbe 605b b1bd
00000180: f003 083e b89b 5abe 2372 d7c0 679a b0c0
00000190: 14ff dbbf 4e7f 98c0 ed40 733f e808 99c0
000001a0: 90b9 1dbf ff85 ff3f 232b 163e 04cc 28c0
000001b0: 810a 263f ecb4 a9c0 0262 6a3f b0e6 94c0
000001c0: c61c 57be f840 413d 16d9 4b3f f63f 66bf
000001d0: 1924 30c1 6f85 a440 63f7 4840 774c 7cbe
000001e0: 5081 24c1 42b6 e940 3623 6e40 ef39 83be
000001f0: 8344 82c1 a6c1 a940 891d 6540 7afa 88bf
00000200: f84e 56be f439 d9bd bc0a 09c0 8cc0 19c0
00000210: 5bfe 0841 b202 92c0 140f 2dc0 a27d 1dc0
00000220: 7d08 1e41 ba05 abc0 8860 03c0 7abd f4bf
00000230: bce8 1941 64aa 98c0 2e79 0ec0 c636 acbf
00000240: 2c4e d8bd bc33 e3bd 9202 2bc1 8104 aa40
00000250: a81b 2a3f 16ee 89c0 0e4a bc40 7725 9240
00000260: c313 643f 6689 e940 2eca d540 d8a7 9e40
00000270: fea5 8dbe e9ea 25c0 35c9 a140 7814 8140
00000280: 6093 d23d 30cb 833c c6af b340 7e67 07c1
00000290: 5d76 3340 41df 8740 ecb2 883f 2c53 fdc0
000002a0: 5291 4a40 3709 0b40 35da 2d40 c13a 08c1
000002b0: 1ace b840 4d7f 8240 1461 5540 1f26 0ac1
000002c0: 50fc 8f3c e8f9 cfbd 00d0 54bf 6d24 47be
000002d0: d5b4 33bf 077d 2dbf eb55 32bf e8a2 55bf
000002e0: ebfd a13d 6b63 0cbf 0a9b 04bf 632c 07bf
000002f0: 4985 08c0 92a0 62bf 28e7 c8be 2037 31bf
00000300: 20e2 51be 06b5 293e 093e 44be 0f7c 2fbf
00000310: 57fe 2bbd 3e6d 06bf ba65 65bf 297a 04bf
00000320: f0d5 9bbe 5861 d1be 4504 fdbe eaf6 d1be
00000330: 4948 febe cb7f 5fbe e8f8 1bbf 8325 eebe
00000340: 54b9 17be 40bb bbbc ede7 32bf 3477 5fbd
00000350: a000 47bf e4df 17bf 232b bc3d 01de 8cbd
00000360: 46a9 4abf 7cb5 e8be 5d47 2fbe 4196 cfbe
00000370: f18d 3fbf 5e9b d5be c435 1bbf 45f2 2ebe
00000380: 34ce 09be 708c dc3c 3b2e 08c0 45d7 dcbd
00000390: 7c8b cb3f 726f a3c0 5992 af3f 8485 0ec1
000003a0: ca63 febf 635c e3c0 88b6 5fc0 7eae a9bd
000003b0: c7a3 1bc0 684f 6840 0c9d 053e 2bc2 abc0
000003c0: c867 553e d42d 46be 6b67 3640 a996 fbc0
000003d0: bb7c a340 5f86 8a40 689d e13f 6992 14c1
000003e0: 5032 9b40 78ad ec3e 34df d4bd 54a2 15c1
000003f0: 8d4d 6840 02cb 8b40 9017 023f f7ab 11c1

bias f4 [150]
-1.8991991 -2.3653927 -0.6069594 -5.58881 14.845368 -0.9725279 -7.553923 -6.5521827
2.7829127 -0.04154507 4.062479 -1.0439152 -0.93224037 -0.51953197 -5.6098714 5.155303
-1.2726856 -1.3957081 2.3928862 -0.35707152 -0.7372007 -6.5171785 -0.89300287 10.147843
-1.1473628 -4.688242 -6.4634676 0.5119293 -5.1410637 -0.20051314 -0.9073699 -1.6360335
-3.4616022 -4.0188737 0.8958937 -3.5900545 9.801516 -0.64309335 -13.485622 -4.7624145
-4.1920323 -0.5401873 -2.6415684 6.6799994 -3.584557 -4.2494645 -1.7644286 5.6391525
3.2482843 3.795757 5.4535985 -0.70735687 -0.5312796 -0.9092989 -3.863816 -7.007008
-1.4671104 4.6960516 2.71518 -2.3774827 -0.7225722 -5.396474 1.8684889 -8.116273
-0.8990142 4.599639 7.6906734 -1.314103 0.37198848 -0.7672586 3.0995746 -5.9052215
15.220909 0.18063822 -1.834134 -4.3285813 -0.97428554 4.7468185 -0.56587857 -0.42993954
-7.96316 9.438293 -5.9389906 -4.0865965 1.7289468 -0.38719782 -0.3978336 -13.083591
3.1592484 -2.3664315 -2.0809853 -1.3583521 1.3632116 -4.2816124 -1.4664091 2.0161893
0.03918316 6.1477747 -1.6844215 -4.528928 -0.64863014 -4.705749 -2.3628933 6.0392447
7.4084406 1.1625713 -3.609787 -0.45576984 -2.1739724 -0.66255635 2.5337868 5.5811
-2.0154243 -2.1826801 -12.106802 9.527879 10.168207 -2.478186 9.1370735 3.3487926
-1.1050223 -1.5995246 -0.7792624 -0.44549578 -0.5602943 3.5155287 2.1357825 -3.6204169
-0.72388136 3.0409186 2.7887204 3.6401315 -2.5958438 -1.8594986 -3.928491 -0.09735218
-0.39253005 -5.346482 -0.40193284 -10.794903 -0.8922717 0.9782268 -6.3841124 -0.6016781
-1.0599843 -0.49833348 -0.2395862 1.584977 -1.3422474 -5.7503586
00000000: f518 f3bf 9862 17c0 b161 1bbf 88d7 b2c0
00000010: a186 6d41 97f7 78bf bdb9 f1c0 7bab d1c0
00000020: 3e1b 3240 2a2b 2abd d4ff 8140 039f 85bf
00000030: 4ea7 6ebf 0c00 05bf 1184 b3c0 3ef8 a440
00000040: 5de7 a2bf 90a6 b2bf 0c25 1940 14d2 b6be
00000050: 2fb9 3cbf ba8c d0c0 d69b 64bf 915d 2241
00000060: c9dc 92bf 1406 96c0 bad4 cec0 cc0d 033f
00000070: 9883 a4c0 5153 4dbe 6549 68bf 8c69 d1bf
00000080: e48a 5dc0 9d9a 80c0 4a59 653f 74c3 65c0
00000090: 02d3 1c41 c4a1 24bf 1cc5 57c1 b365 98c0
000000a0: 2125 86c0 b749 0abf 750f 29c0 8ec2 d540
000000b0: 6269 65c0 9dfb 87c0 ccd8 e1bf f073 b440
000000c0: e4e3 4f40 afed 7240 e183 ae40 5715 35bf
000000d0: f101 08bf d0c7 68bf c348 77c0 6939 e0c0
000000e0: 46ca bbbf 0e46 9640 82c5 2d40 ad28 18c0
000000f0: 7efa 38bf eaaf acc0 a52a ef3f 41dc 01c1
00000100: cb25 66bf 3e30 9340 ff19 f640 8734 a8bf
00000110: 4675 be3e 0f6b 44bf 6e5f 4640 93f7 bcc0
00000120: d888 7341 3af9 383e e7c4 eabf bd83 8ac0
00000130: c76a 79bf f0e5 9740 6bdd 10bf 0921 dcbe
00000140: 35d2 fec0 4003 1741 360c bec0 66c5 82c0
00000150: 214e dd3f cb3e c6be d8b0 cbbe 6456 51c1
00000160: 2031 4a40 9d73 17c0 dd2e 05c0 7bde adbf
00000170: b87d ae3f f802 89c0 4bb3 bbbf 3f09 0140
00000180: 857e 203d 92ba c440 209b d7bf faec 90c0
00000190: a00c 26bf 7f95 96c0 a539 17c0 7e41 c140
000001a0: f211 ed40 23cf 943f c006 67c0 aa5a e9be
000001b0: 5d22 0bc0 4b9d 29bf 9029 2240 5f98 b240
000001c0: b6fc 00c0 08b1 0bc0 76b5 41c1 3172 1841
000001d0: fab0 2241 999a 1ec0 7431 1241 9e52 5640
000001e0: 5f71 8dbf 39bd ccbf be7d 47bf 0618 e4be
000001f0: 726f 0fbf 6cfe 6040 a9b0 0840 e9b4 67c0
00000200: 4a50 39bf 699e 4240 657a 3240 eaf7 6840
00000210: 4e22 26c0 0d04 eebf 666c 7bc0 9460 c7bd
00000220: b3f9 c8be 6116 abc0 24ca cdbe ecb7 2cc1
00000230: eb6b 64bf 126d 7a3f a64a ccc0 9307 1abf
00000240: 91ad 87bf 9125 ffbe 1656 75be 87e0 ca3f
00000250: c3ce abbf f002 b8c0

weight f4 [150]
-0.7148979 0.07405745 0.5906859 8.970706 0.18045425 0.55794394 1.5838375 5.239786
7.1936316 2.6926777 6.525883 -1.1484311 0.5411781 1.5628977 0.48997834 7.056603
5.490205 0.7609994 0.09640157 0.9516272 0.5884291 6.6936927 0.09566212 9.493341
-0.6238054 0.90585136 3.8938515 0.3704719 -0.07117294 0.76309496 -0.25270277 -0.41657233
0.2157999 0.4008457 1.3538446 2.1010628 11.85685 0.7521813 10.957309 -0.4950462
0.43619 0.69762045 0.18305439 3.2812693 -0.5429982 0.27399182 1.205253 5.12179
0.066871755 0.27920237 1.4388804 0.20825462 0.7328278 -0.00522115 0.06621154 0.79513294
1.1504937 1.8651983 4.3476324 2.0172079 0.6148784 -0.04691957 1.4591597 4.350208
-0.025284305 3.5162797 0.24435972 0.410183 -0.0051999614 1.4436054 -0.38062263 2.417443
9.312835 -0.0555798 -0.6847461 0.27479115 1.057814 3.65864 1.4073329 0.72712684
3.4513104 11.982187 1.7690765 0.06507685 -0.062140178 3.3610582 1.1906891 4.8380013
2.4154608 -0.7701206 0.7833116 0.50733817 0.54468626 0.22477205 0.26292205 0.94259
8.56093 14.605359 0.37787372 0.39169124 0.78406477 0.78514016 0.57245827 6.9876313
0.10928603 -0.05677805 -0.06642761 1.0429964 -1.0406687 0.642491 0.11501265 0.07562084
-0.031962756 -0.42413235 3.116505 15.353384 0.5663415 0.49334684 3.271907 0.03168433
2.3556821 -0.28063768 0.64271367 0.7232827 1.2607893 2.6339078 0.8404583 3.2216153
0.42744094 2.5632682 0.094344385 12.002038 -0.96046335 0.40471676 0.6061127 0.269764
0.5195495 0.65880334 0.65857744 1.1102873 0.39159068 -0.29841235 4.201605 1.5968051
-0.056151982 0.5442526 1.0 -0.4091924 5.204507 1.0319008
00000000: 8c03 37bf 6fab 973d 3137 173f 0388 0f41
00000010: 00c9 383e 6ad5 0e3f 30bb ca3f 54ac a740
00000020: 3b32 e640 d554 2c40 09d4 d040 caff 92bf
00000030: a68a 0a3f 080d c83f 71de fa3e b1cf e140
00000040: c2af af40 dbd0 423f 306e c53d d79d 733f
00000050: 4aa3 163f bb32 d640 80ea c33d bae4 1741
00000060: b6b1 1fbf e0e5 673f dd34 7940 7eae bd3e
00000070: 1ec3 91bd 315a 433f 4262 81be f848 d5be
00000080: a6fa 5c3e a63b cd3e c84a ad3f d077 0640
00000090: a8b5 3d41 f48e 403f 2351 2f41 b276 fdbe
000000a0: 4c54 df3e 4197 323f 9c72 3b3e 5100 5240
000000b0: ee01 0bbf a848 8c3e bb45 9a3f b4e5 a340
000000c0: 0ff4 883d 9df3 8e3e 3c2d b83f b340 553e
000000d0: 9a9a 3b3f 2e16 abbb ea99 873d d58d 4b3f
000000e0: 6143 933f d1be ee3f ce1f 8b40 ef19 0140
000000f0: ac68 1d3f bc2e 40bd bfc5 ba3f e734 8b40
00000100: 0821 cfbc ba0a 6140 6f39 7a3e 8203 d23e
00000110: 7064 aabb 10c8 b83f f8e0 c2be 63b7 1a40
00000120: 5f01 1541 a5a7 63bd 854b 2fbf 6db1 8c3e
00000130: 7366 873f 2827 6a40 7c23 b43f fc24 3a3f
00000140: 45e2 5c40 0ab7 3f41 1971 e23f 0347 853d
00000150: b386 7ebd 941b 5740 8068 983f e8d0 9a40
00000160: e996 1a40 a026 45bf 1c87 483f eae0 013f
00000170: 8f70 0b3f a52a 663e b89d 863e 944d 713f
00000180: 92f9 0841 8daf 6941 aa78 c13e c18b c83e
00000190: 78b8 483f f2fe 483f a08c 123f ad9a df40
000001a0: 5bd1 df3d 1a90 68bd 330b 88bd e880 853f
000001b0: a234 85bf 4a7a 243f c18b eb3d 19df 9a3d
000001c0: 61eb 02bd e027 d9be d174 4740 76a7 7541
000001d0: c2fb 103f f597 fc3e ed66 5140 6ec7 013d
000001e0: 7fc3 1640 beaf 8fbe e288 243f 0e29 393f
000001f0: 8b61 a13f f291 2840 4628 573f f22e 4e40
00000200: 8ad9 da3e 960c 2440 a137 c13d 5908 4041
00000210: ede0 75bf 0937 cf3e 342a 1b3f 821e 8a3e
00000220: 3201 053f 56a7 283f 8898 283f e51d 8e3f
00000230: 937e c83e 81c9 98be 8c73 8640 1c64 cc3f
00000240: 9fff 65bd 2354 0b3f 0000 803f ab81 d1be
00000250: 528b a640 5315 843f

bias f4 [150]
-0.1895942 0.21682766 -0.3678494 -5.25305 3.9176404 0.18047391 -0.77909017 -1.1060963
-4.3137207 -0.80561864 -5.6273184 -0.039781224 -0.08029279 -4.4558153 0.0522679 -4.6335683
-3.8960977 -0.04237283 -0.49935877 -0.16015333 -0.06819528 3.052357 -0.584545 -1.411196
0.076317236 0.27454352 -4.173799 -0.32684466 -0.14362885 -2.1314607 0.0051440164 0.06984001
0.030559037 -0.031691533 -0.23790601 -0.40251064 0.8053432 -0.1038824 1.7940146 -0.21152699
-0.036555037 -2.2387984 0.1062256 1.2627734 -0.11460157 -0.18529256 -0.15827963 1.7033877
-0.083237864 -0.19429575 0.6658583 0.24246028 -0.07626398 0.3830599 0.108786926 -0.09078745
-0.107722886 -3.0511823 -2.3031049 -2.4153824 -0.19533436 0.56837565 -1.800132 0.85327333
0.24078125 0.63501465 1.3891375 0.10136526 -0.105671376 0.0016786532 0.17641298 1.0429009
0.9928398 0.015659139 0.17555211 0.13014707 -0.06410691 -5.8702674 2.1263309 -1.8101771
-4.379659 0.5849531 0.01702125 -0.18096335 0.080207944 2.1313396 0.042567708 1.5805819
1.6167375 -0.07919683 0.38038105 -0.29063258 0.57222 -0.0785481 0.22881074 -0.25893685
-2.8387706 -0.27525017 0.33286047 -0.05855243 -0.31590527 -0.04982608 0.18844272 0.43829486
0.4830672 0.45099986 -0.054244336 0.232133 0.24301618 0.124065064 -0.00095126126 0.36001095
-0.20280394 0.0061959433 -0.34423178 1.8853165 -0.12780412 0.45996884 0.84490377 0.11454594
-1.247641 -0.0026929423 -0.5917691 -0.2812112 -3.2879915 -0.8537876 -0.9207029 0.6713418
0.21316765 -1.5540664 -0.093470134 -4.094768 -0.104107894 0.004339099 -0.2652841 -0.09170186
0.004934819 0.332478 -0.08095641 0.6873597 0.09949522 0.13678163 -5.9367065 0.17376561
-0.0132356975 0.22944294 7.773582 -0.08092463 2.0041652 0.16765167
00000000: fb24 42be 1208 5e3e c256 bcbe fc18 a8c0
00000010: 9fba 7a40 27ce 383e 7472 47bf 9094 8dbf
00000020: 000a 8ac0 063d 4ebf fe12 b4c0 a3f1 22bd
00000030: 8c70 a4bd 0a96 8ec0 de16 563d 3146 94c0
00000040: aa59 79c0 228f 2dbd f4ab ffbe 3cff 23be
00000050: f8a9 8bbd d159 4340 bea4 15bf 12a2 b4bf
00000060: 364c 9c3d f890 8c3e c38f 85c0 2f58 a7be
00000070: 7113 13be da69 08c0 238f a83b 4708 8f3d
00000080: f256 fa3c fbce 01bd a29d 73be e015 cebe
00000090: f92a 4e3f 4cc0 d4bd 45a2 e53f 889a 58be
000000a0: bcba 15bd 7948 0fc0 cf8c d93d 8fa2 a13f
000000b0: 3ab4 eabd 55bd 3dbe 0e14 22be 9c08 da3f
000000c0: 9d78 aabd 77f5 46be b175 2a3f 8247 783e
000000d0: 4a30 9cbd 6d20 c43e aecb de3d c5ee b9bd
000000e0: d19d dcbd 9246 43c0 1266 13c0 a095 1ac0
000000f0: bb05 48be 1181 113f ba6a e6bf 1f70 5a3f
00000100: 5c8f 763e 5290 223f 42cf b13f 9798 cf3d
00000110: 3c6a d8bd 4106 dc3a 9ba5 343e c77d 853f
00000120: c02a 7e3f 9847 803c efc3 333e 4645 053e
00000130: 7c4a 83bd 3bd9 bbc0 ce15 0840 e2b3 e7bf
00000140: 2b26 8cc0 7dbf 153f 2670 8b3c 754e 39be
00000150: 1044 a43d de67 0840 7a5b 2e3d 8250 ca3f
00000160: 41f1 ce3f f331 a2bd 4ec1 c23e cbcd 94be
00000170: 037d 123f d4dd a0bd 5d4d 6a3e 5f93 84be
00000180: 6bae 35c0 97ed 8cbe b06c aa3e acd4 6fbd
00000190: 56be a1be 6f16 4cbd 21f7 403e 2f68 e03e
000001a0: 9654 f73e 74e9 e63e 4f2f 5ebd 46b4 6d3e
000001b0: 3cd9 783e d315 fe3d 105e 79ba 5b53 b83e
000001c0: d6ab 4fbe 5707 cb3b 263f b0be 0d52 f13f
000001d0: 15df 02be 0981 eb3e 9d4b 583f 1097 ea3d
000001e0: b3b2 9fbf 137c 30bb 2e7e 17bf eafa 8fbe
000001f0: 746e 52c0 d391 5abf 2fb3 6bbf 0edd 2b3f
00000200: 9f48 5a3e a6eb c6bf 456d bfbd 5708 83c0
00000210: 8536 d5bd 002f 8e3b 51d3 87be 2fce bbbd
00000220: 43b4 a13b 8e3a aa3e 79cc a5bd cef6 2f3f
00000230: 26c4 cb3d 7c10 0c3e 80f9 bdc0 9def 313e
00000240: 8ada 58bc 17f3 6a3e 2fc1 f840 d0bb a5bd
00000250: 3e44 0040 e1ac 2b3e

running_mean f4 [150]
6e-45 2.5875704 6e-45 1.3308282 17.062534 6e-45 6e-45 1.2665054
4.613428 16.814075 6.142087 6e-45 6e-45 6e-45 0.0007701253 4.500122
6.3603253 6e-45 6.0689044 6e-45 6e-45 1.8328743 2.9531386 8.263478
6e-45 0.04081244 1.2560661 0.85695326 0.08260863 6e-45 6e-45 0.02523755
6e-45 6e-45 0.13063039 4.850165 12.906981 6e-45 3.3168786 6e-45
0.036276616 6e-45 6e-45 0.1737468 6e-45 6e-45 0.72205174 5.58185
0.04813237 17.887999 2.094859 16.403517 6e-45 0.016687488 6e-45 6e-45
6e-45 6.710234 3.9680653 17.717234 6e-45 0.003311348 25.608788 0.19474491
6e-45 3.8521106 14.59272 6e-45 4.9063377 6e-45 19.836636 4.42864
2.3818915 2.737167 6e-45 6e-45 0.11935534 27.4106 6e-45 6e-45
1.4112856 12.578036 6e-45 5.415921 9.85454 12.344674 6e-45 0.6081986
3.9289756 0.37029615 6e-45 0.18070576 3.6377811 6e-45 0.11567651 18.43938
9.706488 6.5692196 6e-45 6e-45 6e-45 6e-45 6e-45 14.122732
19.638884 7.4025025 6e-45 6e-45 0.5216267 6e-45 6.144541 10.823359
6e-45 0.8981811 2.0266843 11.871231 18.501413 3.378285 12.319667 10.711887
0.68791497 3.090404 1.9800937 6e-45 6e-45 4.9226575 19.143826 0.016541328
6e-45 12.55128 5.0284224 3.7943358 6e-45 6e-45 6e-45 0.17855889
6e-45 1.3508906e-28 0.077953376 0.4613632 6e-45 4.8311934 1.5613164 6e-45
6e-45 2.7572162 0.0 3.083234 4.219409 1.2001567e-17
00000000: 0400 0000 c19a 2540 0400 0000 9458 aa3f
00000010: 1280 8841 0400 0000 0400 0000 d91c a23f
00000020: 34a1 9340 3a83 8641 fa8b c440 0400 0000
00000030: 0400 0000 0400 0000 3ce2 493a 0001 9040
00000040: c987 cb40 0400 0000 7734 c240 0400 0000
00000050: 0400 0000 a09b ea3f 3900 3d40 3537 0441
00000060: 0400 0000 f22a 273d c6c6 a03f 4a61 5b3f
00000070: b72e a93d 0400 0000 0400 0000 fabe ce3c
00000080: 0400 0000 0400 0000 f9c3 053e 8d34 9b40
00000090: ff82 4e41 0400 0000 bd47 5440 0400 0000
000000a0: ca96 143d 0400 0000 0400 0000 aeea 313e
000000b0: 0400 0000 0400 0000 62d8 383f 849e b240
000000c0: 7326 453d 9f1a 8f41 2b12 0640 673a 8341
000000d0: 0400 0000 33b4 883c 0400 0000 0400 0000
000000e0: 0400 0000 3dba d640 c8f4 7d40 e5bc 8d41
000000f0: 0400 0000 3303 593b ccde cc41 366b 473e
00000100: 0400 0000 fb88 7640 c87b 6941 0400 0000
00000110: b800 9d40 0400 0000 6eb1 9e41 6bb7 8d40
00000120: e970 1840 be2d 2f40 0400 0000 0400 0000
00000130: 9370 f43d e948 db41 0400 0000 0400 0000
00000140: 02a5 b43f a33f 4941 0400 0000 3a4f ad40
00000150: 32ac 1d41 c983 4541 0400 0000 e7b2 1b3f
00000160: 5674 7b40 7597 bd3e 0400 0000 ee0a 393e
00000170: 68d1 6840 0400 0000 cee7 ec3d da83 9341
00000180: c64d 1b41 0c37 d240 0400 0000 0400 0000
00000190: 0400 0000 0400 0000 0400 0000 b6f6 6141
000001a0: 6f1c 9d41 4de1 ec40 0400 0000 0400 0000
000001b0: 5489 053f 0400 0000 14a0 c440 7a2c 2d41
000001c0: 0400 0000 32ef 653f 32b5 0140 90f0 3d41
000001d0: e502 9441 d235 5840 5b1d 4541 e463 2b41
000001e0: 321b 303f 2ec9 4540 b673 fd3f 0400 0000
000001f0: 0400 0000 6986 9d40 8e26 9941 ae81 873c
00000200: 0400 0000 0bd2 4841 d6e8 a040 66d6 7240
00000210: 0400 0000 0400 0000 0400 0000 24d8 363e
00000220: 0400 0000 e83e 2b11 05a6 9f3d cc37 ec3e
00000230: 0400 0000 2399 9a40 37d9 c73f 0400 0000
00000240: 0400 0000 3b76 3040 0000 0000 b553 4540
00000250: 6605 8740 cc63 5d23

running_var f4 [150]
6e-45 19.25531 6e-45 8.530662 51.161335 6e-45 6e-45 11.078804
37.26784 87.93381 50.913807 6e-45 6e-45 6e-45 0.0007336291 37.880024
51.52174 6e-45 38.187675 6e-45 6e-45 16.385654 17.962542 58.841595
6e-45 0.12655185 7.5964174 6.27215 0.27397043 6e-45 6e-45 0.075262606
6e-45 6e-45 0.6861028 38.732857 49.641666 6e-45 18.713022 6e-45
0.11792627 6e-45 6e-45 1.0401292 6e-45 6e-45 4.3425794 37.18335
0.17366675 41.379154 16.57616 46.507954 6e-45 0.038001537 6e-45 6e-45
6e-45 50.05055 30.308052 91.74864 6e-45 0.0065413793 83.27099 1.1908591
6e-45 34.97762 42.877567 6e-45 30.844599 6e-45 60.195946 30.624092
15.460164 18.683455 6e-45 6e-45 0.5473424 97.21593 6e-45 6e-45
10.815982 47.38348 6e-45 27.629852 48.66423 78.54151 6e-45 3.6955478
34.639923 1.6918073 6e-45 0.82468075 22.713835 6e-45 0.49280733 80.28367
76.82707 51.371525 6e-45 6e-45 6e-45 6e-45 6e-45 92.96346
56.18857 43.162983 6e-45 6e-45 3.0590937 6e-45 35.212814 31.707586
6e-45 6.164216 15.085569 45.06082 56.97931 23.311186 48.952835 51.792553
5.398426 19.9226 15.021749 6e-45 6e-45 34.161552 92.15239 0.054433078
6e-45 78.865944 22.83695 30.093037 6e-45 6e-45 6e-45 0.9148641
6e-45 2.8583244e-28 0.33174193 2.6741745 6e-45 31.288467 9.8566885 6e-45
6e-45 15.294858 6e-45 20.937422 35.57094 4.512342e-17
00000000: 0400 0000 e00a 9a41 0400 0000 977d 0841
00000010: 35a5 4c42 0400 0000 0400 0000 c842 3141
00000020: 4512 1542 1cde af42 bda7 4b42 0400 0000
00000030: 0400 0000 0400 0000 0451 403a 2585 1742
00000040: 4316 4e42 0400 0000 2ec0 1842 0400 0000
00000050: 0400 0000 d215 8341 49b3 8f41 cb5d 6b42
00000060: 0400 0000 cf96 013e da15 f340 74b5 c840
00000070: da45 8c3e 0400 0000 0400 0000 4823 9a3d
00000080: 0400 0000 0400 0000 6fa4 2f3f 72ee 1a42
00000090: 1191 4642 0400 0000 45b4 9541 0400 0000
000000a0: 5483 f13d 0400 0000 0400 0000 f422 853f
000000b0: 0400 0000 0400 0000 69f6 8a40 c0bb 1442
000000c0: b2d5 313e 4184 2542 fa9b 8441 2508 3a42
000000d0: 0400 0000 80a7 1b3d 0400 0000 0400 0000
000000e0: 0400 0000 c333 4842 e476 f241 4e7f b742
000000f0: 0400 0000 1159 d63b bf8a a642 126e 983f
00000100: 0400 0000 15e9 0b42 a182 2b42 0400 0000
00000110: bdc1 f641 0400 0000 a6c8 7042 24fe f441
00000120: d55c 7741 b777 9541 0400 0000 0400 0000
00000130: a21e 0c3f 8e6e c242 0400 0000 0400 0000
00000140: 430e 2d41 af88 3d42 0400 0000 f009 dd41
00000150: 2ca8 4242 4115 9d42 0400 0000 db83 6c40
00000160: 488f 0a42 248d d83f 0400 0000 471e 533f
00000170: efb5 b541 0400 0000 3e51 fc3e 3d91 a042
00000180: 76a7 9942 717c 4d42 0400 0000 0400 0000
00000190: 0400 0000 0400 0000 0400 0000 4bed b942
000001a0: 18c1 6042 e5a6 2c42 0400 0000 0400 0000
000001b0: 31c8 4340 0400 0000 ecd9 0c42 23a9 fd41
000001c0: 0400 0000 4241 c540 7e5e 7141 483e 3442
000001d0: d0ea 6342 4f7d ba41 b4cf 4342 932b 4f42
000001e0: e8bf ac40 7c61 9f41 1559 7041 0400 0000
000001f0: 0400 0000 6ea5 0842 064e b842 38f5 5e3d
00000200: 0400 0000 5dbb 9d42 13b2 b641 8abe f041
00000210: 0400 0000 0400 0000 0400 0000 8934 6a3f
00000220: 0400 0000 f72a b511 14da a93e ad25 2b40
00000230: 0400 0000 c84e fa41 ffb4 1d41 0400 0000
00000240: 0400 0000 bdb7 7441 0400 0000 d77f a741
00000250: a448 0e42 5518 5024

weight f4 [150, 150]
0.51559746 -5.5172567 -0.2511011 -1.4002512 -4.8190575 2.0027158 3.6535137 -1.5127585
19.130768 -0.8689413 3.7663102 -1.5059433 4.9007926 7.2891006 -4.3674607 2.9870112
-1.9399738 1.8366518 -3.826268 1.7791669 -4.0689964 0.44790307 5.096355 0.5850877
-0.80984634 -1.9245596 0.7235153 6.707678 1.5442173 7.1876388 5.196599 -3.7738323
1.1037551 -1.9468284 -8.990306 -6.748295 1.0601778 2.3875709 -8.605314 2.729561
-2.1299438 5.2602057 -2.0627677 7.0536065 0.7633519 2.2615023 -2.1264162 -2.2302847
-3.9977396 -0.17128947 -4.2984242 0.051663253 4.0264916 -1.2038423 -0.2627333 4.7434716
-1.2822493 5.54722 2.8162696 4.822025 5.829648 -0.37514958 2.6999018 13.258545
2.2159238 2.1218297 -0.87942874 -1.9462371 -0.4654158 -3.8986366 -2.3160608 3.1920576
6.989198 -3.3989408 -1.17274 1.9707956 1.2399387 3.8500068 -6.346589 5.657982
7.62753 1.5949973 0.54160464 0.67426395 1.8554039 5.3856215 -4.3109303 -0.59041613
-8.342811 -0.7774087 -4.625482 -0.2090383 -2.2346122 -1.7576611 -1.7324538 0.011962983
-0.74638796 16.10571 -6.4627304 2.645748 2.4006987 1.8014212 -6.0526476 1.6377671
-2.2580895 -1.8722281 0.339681 -1.5928868 -0.43356693 0.40670478 -0.50548446 2.0061908
1.1358671 -1.040794 5.9509926 1.0804403 2.8047094 -5.504006 0.6787154 1.8364198
-2.4631827 0.46554542 2.695927 3.8875847 7.1046786 2.7149308 3.6048834 -2.0231552
-3.9976118 -0.108845405 0.7542004 5.267109 -1.6398468 -1.0012739 2.8281472 1.0922364
-1.2497964 -1.4360977 0.26158926 0.7485974 0.0012783131 -1.9960661 3.153525 -0.91507405
-2.0750942 -1.6932946 -7.8508577 1.5989788 0.53679657 1.4456657 0.3833281 2.29457
1.9309897 4.563896 -2.555977 -0.41997454 2.32526 -10.634913 -4.435444 5.818693
-2.7383752 -1.2991729 1.3449521 1.9551497 -1.4928707 -2.892249 -1.4266188 1.0752063
-3.5967503 1.0386745 2.7443237 -2.6043098 -1.0633713 -7.3602614 -1.5170081 -3.3654826
5.0080795 -0.8872176 -0.4840864 1.8152269 -1.0492533 0.4183744 -2.18942 -1.7882086
1.1412686 3.4830813 2.64191 1.7295092 -3.0522308 -0.35530937 -1.4148175 0.8458031
-0.22308885 -3.6620953 -1.497834 1.0881305 -1.2625155 1.1871709 2.3557746 0.64565164
3.060975 -3.0778344 -1.0132922 1.6798179 2.3328485 -1.4993954 0.07868709 -1.9857296
5.1887503 5.9755816 0.22359607 0.7215528 0.87709486 -15.913036 -0.73811245 -8.961915
-0.8012473 -0.8774722 3.4122186 1.1624862 0.31718466 6.225117 2.719552 0.3525176
-3.4380248 -0.2689014 3.516605 -0.8924291 -1.594487 1.2713696 0.9660887 1.7962714
-1.9292201 -1.5580652 -2.7678761 -0.88612854 1.3295703 -0.21365786 -3.9030066 -2.1646152
-1.9567568 -1.7623098 0.5354566 -0.520637 -3.2297866 6.1528206 20.518032 -5.174559
0.2781716 -0.8028029 0.38235256 0.2892765 1.2341307 11.713329 0.28431454 -3.002147
00000000: 32fe 033f 5e8d b0c0 5390 80be 6e3b b3bf
00000010: b835 9ac0 7f2c 0040 2bd3 6940 12a2 c1bf
00000020: d00b 9941 f072 5ebf 3a0b 7140 c0c2 c0bf
00000030: 4bd3 9c40 5040 e940 3dc2 8bc0 312b 3f40
00000040: 1051 f8bf 6817 eb3f 93e1 74c0 bebb e33f
00000050: 3835 82c0 8d53 e53e 5715 a340 4fc8 153f
00000060: 1752 4fbf f857 f6bf 4c38 393f 4ca5 d640
00000070: eaa8 c53f 2301 e640 8a4a a640 7886 71c0
00000080: d947 8d3f ac31 f9bf 4bd8 0fc1 08f2 d7c0
00000090: e8b3 873f f6cd 1840 5eaf 09c1 21b1 2e40
000000a0: 0051 08c0 9b53 a840 6304 04c0 25b7 e140
000000b0: 086b 433f 74bc 1040 3417 08c0 fcbc 0ec0
000000c0: f7da 7fc0 8266 2fbe b18c 89c0 d99c 533d
000000d0: 05d9 8040 8117 9abf fb84 86be 85ca 9740
000000e0: bf20 a4bf d482 b140 c33d 3440 074e 9a40
000000f0: 7a8c ba40 9b13 c0be 31cb 2c40 0023 5441
00000100: b2d1 0d40 0fcc 0740 3e22 61bf 4c1e f9bf
00000110: fb4a eebe 4383 79c0 573a 14c0 ac4a 4c40
00000120: 83a7 df40 3f88 59c0 581c 96bf 0843 fc3f
00000130: 50b6 9e3f 8366 7640 4217 cbc0 300e b540
00000140: ba14 f440 df28 cc3f 9aa6 0a3f 909c 2c3f
00000150: e07d ed3f 0357 ac40 24f3 89c0 8325 17bf
00000160: 277c 05c1 4204 47bf f303 94c0 230e 56be
00000170: e303 0fc0 0afb e0bf 0cc1 ddbf 6300 443c
00000180: 4813 3fbf 7ed8 8041 b0ce cec0 ef53 2940
00000190: 0ca5 1940 f894 e63f 4aaf c1c0 5aa2 d13f
000001a0: 8a84 10c0 2ca5 efbf abea ad3e b7e3 cbbf
000001b0: 7cfc ddbe 9c3b d03e 6e67 01bf 6e65 0040
000001c0: 1864 913f bd38 85bf 886e be40 de4b 8a3f
000001d0: 5c80 3340 d120 b0c0 4bc0 2d3f ce0f eb3f
000001e0: c9a4 1dc0 f85b ee3e 118a 2c40 30ce 7840
000001f0: 8759 e340 6dc1 2d40 69b6 6640 607b 01c0
00000200: dfd8 7fc0 57ea debd 4713 413f 288c a840
00000210: 80e6 d1bf be29 80bf 5d00 3540 67ce 8b3f
00000220: 54f9 9fbf 0dd2 b7bf 07ef 853e 14a4 3f3f
00000230: 128d a73a 187f ffbf 5bd3 4940 4b42 6abf
00000240: 58ce 04c0 e1bd d8bf 3a3a fbc0 56ab cc3f
00000250: 806b 093f 930b b93f 9543 c43e 3cda 1240
00000260: ac2a f73f 700b 9240 2195 23c0 e706 d7be
00000270: 0fd1 1440 9b28 2ac1 28ef 8dc0 bc32 ba40
00000280: 8a41 2fc0 4c4b a6bf 6427 ac3f 5842 fa3f
00000290: 6316 bfbf 9c1a 39c0 729b b6bf 5ca0 893f
000002a0: 2831 66c0 49f3 843f 00a3 2f40 03ad 26c0
000002b0: 8d1c 88bf 4387 ebc0 522d c2bf 1164 57c0
000002c0: 3042 a040 b120 63bf 2cda f7be 5b59 e83f
000002d0: ef4d 86bf 2b35 d63e 751f 0cc0 05e4 e4bf
000002e0: 1715 923f ceea 5e40 0e15 2940 8f60 dd3f
000002f0: c057 43c0 1ceb b5be bd18 b5bf 8d86 583f
00000300: 6771 64be c55f 6ac0 06b9 bfbf dc47 8b3f
00000310: 1c9a a1bf 37f5 973f 03c5 1640 6d49 253f
00000320: 04e7 4340 3dfb 44c0 8fb3 81bf 4604 d73f
00000330: 644d 1540 30ec bfbf b226 a13d 632c febf
00000340: 3e0a a640 f737 bf40 5ef6 643e afb7 383f
00000350: 4a89 603f cc9b 7ec1 f0f4 3cbf 0164 0fc1
00000360: 8b1e 4dbf 05a2 60bf ca61 5a40 59cc 943f
00000370: 0766 a23e 2934 c740 240d 2e40 307d b43e
00000380: 9908 5cc0 72ad 89be 0e10 6140 3c76 64bf
00000390: 2618 ccbf 3dbc a23f 9751 773f 39ec e53f
000003a0: aff0 f6bf ae6e c7bf e224 31c0 52d9 62bf
000003b0: 5c2f aa3f 20c9 5abe dcca 79c0 0e89 0ac0
000003c0: 0277 fabf 5e93 e1bf af13 093f 7748 05bf
000003d0: d3b4 4ec0 e8e3 c440 ee24 a441 fd95 a5c0
000003e0: 826c 8e3e 7e84 4dbf b7c3 c33e 0d1c 943e
000003f0: fff7 9d3f cc69 3b41 ad91 913e 2d23 40c0

bias f4 [150]
-6.096945 -2.7194355 0.49779642 -0.6483622 -4.8397555 -4.3137984 -7.1030006 -3.5950391
-4.187074 -0.48645103 1.3731874 1.6737922 -2.060899 -1.597559 -0.6165105 0.91386414
1.1107845 1.3397675 -1.2150744 -1.0823922 0.16445234 -4.8659763 1.2727426 -2.8819788
1.691128 2.3938224 0.2923433 -2.3523223 -0.79248095 -1.9795785 2.243583 -3.0286732
-8.441105 -3.8783753 -7.632075 -1.5915649 2.3548105 -0.08007665 2.1340966 0.29001078
-9.482419 -2.0438647 -2.8805966 -8.375548 2.0756829 -3.922599 -0.5936247 1.9138111
-5.1168265 -0.9339395 3.265233 -0.94930345 -0.8123055 -4.8038397 1.0621016 -0.022982081
-6.6430206 -1.7456908 -5.148352 -4.6180553 -5.0176764 -0.3848502 -8.670779 -3.0759437
-0.3870547 -0.33983895 -2.0240555 -2.3318212 -0.72515386 -3.4078 -4.463816 -1.7353684
-1.1482831 -2.4229414 -0.18470666 2.0631866 -1.221454 2.9436705 -5.050668 1.5181717
-0.009250312 -0.5820116 -1.9781014 0.06474716 -5.7458386 0.34227097 -8.935234 -6.2534714
-4.5110655 -1.5401556 -2.315622 -5.57076 -9.920884 1.866266 -0.9259491 1.9513359
-1.5834115 -2.2457998 -6.2163377 0.9144741 -2.947625 0.9644647 -3.7142353 -0.12831862
-3.4955866 3.465084 -4.506789 -0.3024285 -4.07262 0.81658244 1.0879053 2.0217721
1.583578 -1.4009959 0.78970575 -2.058785 -2.5640779 2.1237166 -3.3369927 -2.7670982
0.27947345 -2.9224586 -1.1327103 1.2137011 -2.8109508 -4.4872947 2.2939558 -4.6432505
-1.9689755 -4.0049167 -0.83648247 -6.5529695 -2.345205 -4.9933543 0.59938353 1.0288923
-3.0479667 1.8845431 -2.7373385 0.09499923 -2.770061 -0.010470876 2.106056 -1.7930074
-3.6589987 -4.424036 -1.2802181 1.7636619 -5.702905 -8.057235
00000000: 2c1a c3c0 3b0b 2ec0 2cdf fe3e 11fb 25bf
00000010: 47df 9ac0 a30a 8ac0 c84b e3c0 1f15 66c0
00000020: 83fc 85c0 1c10 f9be 9bc4 af3f d33e d63f
00000030: c5e5 03c0 d07c ccbf a2d3 1dbf 00f3 693f
00000040: 302e 8e3f 807d ab3f 8f87 9bbf d48b 8abf
00000050: 3266 283e 14b6 9bc0 3be9 a23f 5772 38c0
00000060: e276 d83f 6334 1940 05ae 953e 738c 16c0
00000070: 08e0 4abf d462 fdbf dd96 0f40 c8d5 41c0
00000080: c40e 07c1 4d37 78c0 f539 f4c0 66b8 cbbf
00000090: 37b5 1640 3aff a3bd 0a95 0840 4b7c 943e
000000a0: fdb7 17c1 aece 02c0 b25b 38c0 3f02 06c1
000000b0: fdd7 0440 dd0b 7bc0 caf7 17bf c3f7 f43f
000000c0: 0bbd a3c0 a916 6fbf 94f9 5040 8d05 73bf
000000d0: 41f3 4fbf 0eb9 99c0 f2f2 873f eb44 bcbc
000000e0: a093 d4c0 cc72 dfbf 4dbf a4c0 1cc7 93c0
000000f0: ce90 a0c0 160b c5be 83bb 0ac1 43dc 44c0
00000100: 092c c6be 5fff adbe 208a 01c0 8f3c 15c0
00000110: afa3 39bf 6519 5ac0 95d7 8ec0 8d20 debf
00000120: f1fa 92bf 7911 1bc0 be23 3dbe 400b 0440
00000130: 9b58 9cbf 1965 3c40 129f a1c0 7353 c23f
00000140: 9f8e 17bc b6fe 14bf 6d32 fdbf 299a 843d
00000150: e9dd b7c0 243e af3e b8f6 0ec1 701c c8c0
00000160: a65a 90c0 d223 c5bf 2733 14c0 aa43 b2c0
00000170: f1bb 1ec1 cee1 ee3f 000b 6dbf 60c5 f93f
00000180: 3aad cabf 2fbb 0fc0 3dec c6c0 fa1a 6a3f
00000190: e3a5 3cc0 29e7 763f 08b6 6dc0 f565 03be
000001a0: b1b7 5fc0 f0c3 5d40 9e37 90c0 e9d7 9abe
000001b0: e752 82c0 8c0b 513f 7b40 8b3f b764 0140
000001c0: afb2 ca3f d553 b3bf 282a 4a3f 22c3 03c0
000001d0: da19 24c0 f9ea 0740 4a91 55c0 2318 31c0
000001e0: 2517 8f3e 9009 3bc0 a7fc 90bf 8f5a 9b3f
000001f0: 9ee6 33c0 eb97 8fc0 2cd0 1240 8295 94c0
00000200: 6407 fcbf 4728 80c0 b723 56bf edb1 d1c0
00000210: d717 16c0 8fc9 9fc0 3371 193f beb2 833f
00000220: e311 43c0 b538 f13f 8e30 2fc0 f58e c23d
00000230: ae48 31c0 098e 2bbc 9fc9 0640 4481 e5bf
00000240: 092d 6ac0 b491 8dc0 30de a3bf acbf e13f
00000250: 337e b6c0 6fea 00c1

weight f4 [150]
5.2871823 4.797651 -0.05078987 0.023256203 5.229359 0.82300985 5.1616163 5.2470956
0.28440592 -0.060362935 0.4046994 10.102199 7.8002853 0.053523913 -0.11708118 0.046370957
-0.31803647 -0.20916006 8.390624 -0.16342308 0.008357395 7.1581116 -0.086046115 4.8296647
5.2993503 7.857477 0.18504053 0.9420411 -0.18390377 -0.040644754 -0.07922575 -1.0282426
6.105366 -0.22278118 7.3633094 -0.12558171 -0.06373317 -0.11497498 0.029155742 -0.16155028
6.364025 -0.03706743 6.995565 5.5310254 -0.04673127 -0.10954958 -0.21719493 0.060913343
6.7165294 -0.1519755 -0.19269791 -0.03552039 -0.032847878 1.2874618 -0.2116567 6.717745
5.703834 9.146471 1.0146415 8.020935 -0.06504738 -0.033510454 3.439256 -0.007957383
-0.114192784 0.17415218 3.453699 -0.16445453 -0.018865464 10.279074 4.523012 0.04716773
0.88161474 -0.097562455 -0.10531011 7.288977 -0.0016636318 -0.3841669 2.6345432 6.5068502
4.165371 11.313996 0.016980803 -0.016732715 9.742409 0.022917518 1.6955762 7.904084
2.4799786 -0.3107422 9.636981 14.1159 3.3204925 0.115182646 0.013544203 0.18237714
0.42450175 -0.033187255 8.990985 -0.554261 0.49585086 4.2177353 3.9470606 0.25531083
0.54069704 0.35797298 2.5944645 -0.08376069 -0.44917214 0.26484904 2.5373425 0.26581025
1.1833867 -0.16204391 -0.07068255 0.88295364 0.46805832 0.28564328 2.1922286 0.04910925
0.09278691 7.155125 0.0041727982 -0.023999402 3.1554399 0.5809287 0.26082575 6.4292297
9.753288 7.876213 -0.41298792 9.1552105 1.663293 6.294741 0.37865087 5.1769004
5.935597 -0.20998544 2.2887201 -0.20016463 0.13199304 0.36813733 0.1283329 3.781366
7.9756246 -0.29306778 -0.0027261237 -0.088650085 6.798384 -1.2679268
00000000: 9930 a940 5b86 9940 0a09 50bd cb83 be3c
00000010: e956 a740 c6b0 523f f62b a540 35e8 a740
00000020: a79d 913e 203f 77bd c234 cf3e 9ba2 2141
00000030: f09b f940 e43b 5b3d 42c8 efbd 79ef 3d3d
00000040: add5 a2be 0e2e 56be ff3f 0641 6158 27be
00000050: 75ed 083c 400f e540 f238 b0bd 9d8c 9a40
00000060: 4794 a940 7470 fb40 447b 3d3e 9b29 713f
00000070: 4551 3cbe 1d7b 26bd 1c41 a2bd 749d 83bf
00000080: 295f c340 c020 64be 3ba0 eb40 7e98 00be
00000090: 8986 82bd 0178 ebbd 06d8 ee3c 706d 25be
000000a0: 18a6 cb40 04d4 17bd abdb df40 29fe b040
000000b0: 4a69 3fbd 885b e0bd 5968 5ebe 4580 793d
000000c0: cfed d640 779f 1bbe 9a52 45be d47d 11bd
000000d0: 7f8b 06bd 8ccb a43f 89bc 58be c4f7 d640
000000e0: cf85 b640 f257 1241 c6df 813f c055 0041
000000f0: 9037 85bd 4242 09bd c51c 5c40 af5f 02bc
00000100: e8dd e9bd f354 323e 6809 5d40 c566 28be
00000110: bf8b 9abc 1677 2441 84bc 9040 f332 413d
00000120: 81b1 613f d3ce c7bd d4ac d7bd 4d3f e940
00000130: 380e daba 86b1 c4be 5b9c 2840 1e38 d040
00000140: b84a 8540 2106 3541 531b 8b3c 0c13 89bc
00000150: e8e0 1b41 85bd bb3c a408 d93f 42ee fc40
00000160: f8b7 1e40 9a19 9fbe 1331 1a41 bada 6141
00000170: f382 5440 e1e4 eb3d 81e8 5d3c 13c1 3a3e
00000180: 4b58 d93e 5cef 07bd 13db 0f41 0de4 0dbf
00000190: 2ae0 fd3e b0f7 8640 a49c 7c40 1ab8 823e
000001a0: 1f6b 0a3f 3c48 b73e b50b 2640 ba8a abbd
000001b0: e4f9 e5be 4b9a 873e d263 2240 4818 883e
000001c0: 3779 973f d7ee 25be 03c2 90bd 4009 623f
000001d0: 57a5 ef3e d63f 923e 794d 0c40 c826 493d
000001e0: 1007 be3d c9f6 e440 f8bb 883b 659a c4bc
000001f0: baf2 4940 beb7 143f f48a 853e 40bc cd40
00000200: 780d 1c41 f009 fc40 2773 d3be be7b 1241
00000210: c9e6 d43f 856e c940 87de c13e 2ba9 a540
00000220: 69f0 bd40 6c06 57be 647a 1240 f5f7 4cbe
00000230: 2f29 073e 7f7c bc3e b369 033e e701 7240
00000240: 5138 ff40 fb0c 96be c4a8 32bb 2d8e b5bd
00000250: 5d8c d940 6d4b a2bf

bias f4 [150]
2.3647406 1.025608 -0.08827703 0.02000197 -0.003253682 -0.15762438 1.5913572 -1.4308355
0.4143674 -0.13855882 0.32190472 2.0544438 1.5880156 0.26512593 0.27435634 0.07664023
-0.222266 0.020444283 3.7748961 -0.11961559 -0.19913231 -2.337209 -0.13285834 -1.3032624
0.36243522 0.41219178 -0.29571125 0.23947322 0.6508964 -0.1300647 0.07853681 0.21354303
0.8752361 -0.32543588 -7.0174084 0.42805937 -0.13176948 0.27381495 0.057570085 0.30151996
0.20516846 -0.27572766 4.030488 1.7389183 -0.6650753 0.37152788 0.5034821 0.053508718
1.2637477 -0.14510505 0.46743634 0.0062594106 0.34656152 0.13432546 -0.40479997 3.8983252
1.4067006 1.5886554 -0.37040544 0.39404663 0.22135974 -0.23662162 -0.1382263 0.35783413
-0.21332069 -0.24672104 0.9809288 0.021908304 0.18195152 4.3875966 1.2613443 0.30280703
0.34833965 -0.50832254 -0.09571606 -0.9487011 -0.26182726 -0.26782393 -3.7103934 0.7937733
5.3855267 2.1535134 -0.08951928 0.05118492 2.3995187 -0.103561364 -0.013435473 2.1013563
-0.6527998 0.15750141 3.4343307 7.052796 0.72940063 -0.046070132 -0.3177934 -0.029865945
0.34004742 -0.1918483 -0.6345237 -0.4622245 -0.0030205348 0.50946426 -2.1506398 -0.024153365
2.0009437 0.6842569 -0.18959293 -0.006959696 -0.16541868 -0.07430073 2.3970404 0.1958971
0.0834062 0.037776954 0.14157984 0.48023748 -0.19239293 -0.27342185 1.1440492 0.012227784
0.22963426 2.5735686 -0.22875333 -0.26853776 2.2578633 -0.6270928 0.23709908 1.638533
3.344019 3.1555421 0.21197413 2.4062998 -0.50597584 2.3659303 -0.092691265 1.1683892
2.9221423 -0.3805418 1.8660063 -0.17988597 0.0029864484 -0.31689453 0.060084056 2.8433244
6.1337404 0.57520014 -0.36084175 -0.25677335 -3.4476883 0.34475783
00000000: e957 1740 1f47 833f 96ca b4bd 2cdb a33c
00000010: ba3b 55bb 4968 21be 98b1 cb3f 9e25 b7bf
00000020: f727 d43e 5de2 0dbe b2d0 a43e 027c 0340
00000030: 1844 cb3f 96be 873e 6f78 8c3e 8ef5 9c3d
00000040: b399 63be c57a a73c e697 7140 05f9 f4bd
00000050: 57e9 4bbe d594 15c0 040c 08be 4dd1 a6bf
00000060: 1c91 b93e cd0a d33e 7767 97be 7838 753e
00000070: 25a1 263f ae2f 05be e8d7 a03d 06ab 5a3e
00000080: 790f 603f 889f a6be 9c8e e0c0 992a db3e
00000090: 94ee 06be 7931 8c3e 9cce 6b3d d360 9a3e
000000a0: ae17 523e 2d2c 8dbe c2f9 8040 e094 de3f
000000b0: 6042 2abf e738 be3e 34e4 003f f52b 5b3d
000000c0: 7cc2 a13f 6b96 14be d153 ef3e be1b cd3b
000000d0: 8370 b13e 9d8c 093e f141 cfbe 297e 7940
000000e0: c40e b43f 0f59 cb3f c8a5 bdbe 7bc0 c93e
000000f0: 21ac 623e f04c 72be 328b 0dbe 0936 b73e
00000100: bd70 5abe 71a4 7cbe 261e 7b3f 0b79 b33c
00000110: 8051 3a3e 3167 8c40 bb73 a13f 8609 9b3e
00000120: 9359 b23e 6d21 02bf c806 c4bd 13de 72bf
00000130: 390e 86be 3820 89be 1677 6dc0 ba34 4b3f
00000140: 3c56 ac40 2ad3 0940 e255 b7bd 47a7 513d
00000150: b791 1940 fb17 d4bd 7520 5cbc 9f7c 0640
00000160: e31d 27bf 0d48 213e 13cc 5b40 81b0 e140
00000170: 00ba 3a3f 09b4 3cbd d1b5 a2be 6da9 f4bc
00000180: b21a ae3e e173 44be 2570 22bf b1a8 ecbe
00000190: 2af4 45bb 406c 023f 15a4 09c0 47dd c5bc
000001a0: 760f 0040 762b 2f3f a624 42be 290e e4bb
000001b0: 8463 29be fb2a 98bd 1c69 1940 4099 483e
000001c0: dfd0 aa3d 02bc 1a3d 4efa 103e b0e1 f53e
000001d0: a702 45be f3fd 8bbe 3470 923f 0b57 483c
000001e0: 3e25 6b3e 59b5 2440 503e 6abe c87d 89be
000001f0: d580 1040 2789 20bf 1aca 723e 73bb d13f
00000200: 6804 5640 67f4 4940 bf0f 593e d100 1a40
00000210: a287 01bf 676b 1740 ebd4 bdbd c78d 953f
00000220: 6104 3b40 60d6 c2be 4bd9 ee3f 0734 38be
00000230: 4ab8 433b 0040 a2be b31a 763d 07f9 3540
00000240: 9a47 c440 5140 133f 40c0 b8be cc77 83be
00000250: eda6 5cc0 1984 b03e

running_mean f4 [150]
59.233875 77.86273 165.01814 221.8143 6.9323473 19.980951 65.532364 50.461487
7.5830903 188.24129 269.3748 484.1636 248.43002 103.40739 136.81323 203.18947
195.58711 307.49258 140.02255 176.81847 217.52779 239.06125 277.1464 43.319477
500.63638 412.02942 190.44002 205.77956 261.90485 195.68231 254.3557 13.826691
12.742881 16.620354 55.75959 108.10499 288.44656 232.64299 236.59283 221.78604
6.6405716 79.44741 139.12743 62.45252 208.93378 6.601264e-18 214.67857 321.43234
56.41583 112.9768 301.69287 182.05115 223.35764 67.531334 225.94455 183.33534
39.567997 78.49981 6e-45 30.163048 6.075892e-24 167.81947 2.0477362 60.485275
127.75913 225.56847 186.03241 38.43297 180.41696 144.86938 117.0178 121.395164
132.33942 54.70308 239.90744 479.6663 83.8124 342.7871 6e-45 492.76266
217.43852 303.26654 144.33891 238.00244 59.787445 228.25012 2.5265055 59.249676
82.81233 151.79738 352.8055 55.544376 7.311609 308.43225 6e-45 177.79562
192.13892 68.65161 244.86893 219.5631 51.763645 473.1939 56.377056 163.58914
68.56383 336.50613 6e-45 179.0015 48.706215 368.11942 457.39102 296.1276
420.8718 80.38526 220.63177 115.6169 6e-45 378.40915 50.407055 60.401745
169.03127 249.31892 257.36722 181.72823 52.24305 32.095783 187.35078 40.830242
137.6792 210.41728 161.11603 15.508262 192.90572 29.283812 126.884705 488.6145
243.04535 354.34045 161.72516 223.9668 29.590492 161.52017 270.78204 186.89044
36.509434 69.531 118.25244 299.8132 36.464935 6e-45
00000000: 7def 6c42 b8b9 9b42 a504 2543 76d0 5d43
00000010: cad5 dd40 fdd8 9f41 9210 8342 90d8 4942
00000020: ada8 f240 c53d 3c43 f9af 8643 f114 f243
00000030: 166e 7843 95d0 ce42 30d0 0843 8130 4b43
00000040: 4d96 4343 0dbf 9943 c605 0c43 87d1 3043
00000050: 1d87 5943 ae0f 6f43 bd92 8a43 2547 2d42
00000060: 7551 fa43 c403 ce43 a570 3e43 91c7 4d43
00000070: d2f3 8243 acae 4343 0f5b 7e43 203a 5d41
00000080: d7e2 4b41 7cf6 8441 d209 5f42 c135 d842
00000090: 2939 9043 9ba4 6843 c497 6c43 3ac9 5d43
000000a0: 907f d440 13e5 9e42 9f20 0b43 61cf 7942
000000b0: 0cef 5043 2d8b f322 b7ad 5643 57b7 a043
000000c0: cfa9 6142 1ff4 e142 b0d8 9643 180d 3643
000000d0: 8e5b 5f43 0b10 8742 cef1 6143 d955 3743
000000e0: a145 1e42 e7ff 9c42 0400 0000 ec4d f141
000000f0: b80c eb18 c9d1 2743 1c0e 0340 ecf0 7142
00000100: ad84 ff42 8791 6143 4c08 3a43 5cbb 1942
00000110: be6a 3443 90de 1043 1d09 ea42 53ca f242
00000120: e456 0443 f4cf 5a42 4ee8 6f43 49d5 ef43
00000130: f39f a742 c064 ab43 0400 0000 9f61 f643
00000140: 4370 5943 1ea2 9743 c356 1043 a000 6e43
00000150: 5826 6f42 0840 6443 44b2 2140 abff 6c42
00000160: ea9f a542 21cc 1743 1b67 b043 712d 5e42
00000170: b3f8 e940 5437 9a43 0400 0000 aecb 3143
00000180: 9023 4043 a04d 8942 72de 7443 2790 5b43
00000190: f90d 4f42 d298 ec43 1b82 6142 d296 2343
000001a0: ae20 8942 c940 a843 0400 0000 6200 3343
000001b0: 2ad3 4242 490f b843 0db2 e443 5510 9443
000001c0: 976f d243 41c5 a042 bca1 5c43 da3b e742
000001d0: 0400 0000 5f34 bd43 d3a0 4942 639b 7142
000001e0: 0108 2943 a551 7943 01af 8043 6dba 3543
000001f0: e2f8 5042 1562 0042 cd59 3b43 2b52 2342
00000200: e0ad 0943 d36a 5243 b41d 2143 d721 7841
00000210: dde7 4043 3f45 ea41 f8c4 fd42 a84e f443
00000220: 9c0b 7343 942b b143 a4b9 2143 80f7 5f43
00000230: 54b9 ec41 2a85 2143 1a64 8743 f4e3 3a43
00000240: a909 1242 df0f 8b42 4081 ec42 17e8 9543
00000250: 18dc 1142 0400 0000

running_var f4 [150]
29071.037 24612.219 25315.498 70108.836 1725.4985 3377.874 19218.545 10072.608
969.7516 47034.93 85416.2 61720.414 61581.066 19245.24 25357.11 42554.03
54094.066 45014.473 69501.25 24407.64 29972.336 65462.15 42754.45 26409.186
128152.52 46524.652 37058.832 41203.336 53006.016 40344.31 45963.223 2409.9797
4657.3867 3455.811 18086.617 24042.445 62555.477 38018.516 41979.625 44189.402
2641.6736 17923.396 61875.125 22468.527 52863.97 8.081045e-17 47191.383 98834.805
25140.096 26766.86 68619.35 29827.047 57210.082 16562.553 39272.867 63694.266
13602.246 14766.918 6e-45 9547.345 8.289358e-23 35737.164 465.85892 13955.947
22870.982 55180.85 48449.527 8056.6406 48153.24 88727.93 34415.47 33785.3
44231.344 17488.871 54441.77 118745.0 14142.519 112435.88 6e-45 65122.277
54294.67 304332.5 34074.688 42172.883 32828.816 44010.707 1617.9758 27483.643
34041.668 26563.896 144610.94 42727.832 1823.1976 65331.066 6e-45 35162.9
37643.645 23179.2 71247.83 70133.99 14565.182 114787.53 10863.403 28266.637
24355.785 108941.78 6e-45 44660.043 9048.395 62428.816 109848.8 38943.047
91029.39 14382.274 46481.29 31908.768 6e-45 49666.164 11454.915 12515.602
33495.824 62215.062 49619.195 35131.97 17298.615 5435.364 42604.316 7210.1494
74730.04 70245.45 32330.824 5335.5386 46992.08 8771.249 19042.217 123176.164
59098.25 104766.19 37882.54 78476.82 4690.6377 33112.516 50087.105 130725.87
9448.609 14397.835 22079.508 97100.016 7667.6963 6e-45
00000000: 131e e346 7048 c046 ffc6 c546 6bee 8847
00000010: f4af d744 fc1d 5345 1725 9646 6f62 1d46
00000020: 1a70 7244 eeba 3747 1ad4 a647 6a18 7147
00000030: 118d 7047 7b5a 9646 381a c646 083a 2647
00000040: 114e 5347 79d6 2f47 a0be 8747 48af be46
00000050: ac28 ea46 26b6 7f47 7302 2747 5f52 ce46
00000060: 434c fa47 a7bc 3547 d5c2 1047 56f3 2047
00000070: 040e 4f47 4f98 1d47 398b 3347 ad9f 1645
00000080: 188b 9145 fafc 5745 3c4d 8d46 e4d4 bb46
00000090: 7a5b 7447 8482 1447 a0fb 2347 679d 2c47
000000a0: c71a 2545 cb06 8c46 20b3 7147 0e89 af46
000000b0: f87f 4e47 1256 ba24 6257 3847 6709 c147
000000c0: 3168 c446 b81d d146 ad05 8647 1806 e946
000000d0: 157a 5f47 1b65 8146 de68 1947 44ce 7847
000000e0: fc88 5446 acbb 6646 0400 0000 612d 1546
000000f0: a46c c81a 2a99 0b47 f1ed e843 ca0f 5a46
00000100: f7ad b246 da8c 5747 8741 3d47 20c5 fb45
00000110: 3d19 3c47 f74b ad47 786f 0647 4df9 0347
00000120: 58c7 2c47 bea1 8846 c5a9 5447 80ec e747
00000130: 13fa 5c46 f199 db47 0400 0000 4762 7e47
00000140: ac16 5447 9099 9448 b01a 0547 e2bc 2447
00000150: d13c 0047 b5ea 2b47 3a3f ca44 49b7 d646
00000160: abf9 0447 cb87 cf46 bc38 0d48 d5e7 2647
00000170: 53e6 e344 1133 7f47 0400 0000 e65a 0947
00000180: a50b 1347 6616 b546 ea27 8b47 fffa 8847
00000190: ba94 6346 c431 e047 9dbd 2946 46d5 dc46
000001a0: 9247 be46 e4c6 d447 0400 0000 0b74 2e47
000001b0: 9461 0d46 d1dc 7347 668c d647 0c1f 1847
000001c0: b2ca b147 19b9 6046 4a91 3547 8949 f946
000001d0: 0400 0000 2a02 4247 a9fb 3246 688e 4346
000001e0: d3d7 0247 1007 7347 32d3 4147 f83b 0947
000001f0: 3b25 8746 e9da a945 516c 2647 3251 e145
00000200: 05f5 9147 ba32 8947 a695 fc46 4fbc a645
00000210: 1490 3747 ff0c 0946 6fc4 9446 1594 f047
00000220: 40da 6647 189f cc47 8afa 1347 6946 9947
00000230: 1a95 9245 8458 0147 1ba7 4347 ef52 ff47
00000240: 70a2 1346 57f7 6046 047f ac46 02a6 bd47
00000250: 929d ef45 0400 0000
